…
trainable params: 44,564,480 || all params: 69,021,212,672 || trainable%: 0.06456635326269569
trainable params: 44,564,480 || all params: 69,021,212,672 || trainable%: 0.06456635326269569
Generating train split: 0 examples [00:00, ? examples/s]Generating train split: 3901 examples [00:00, 5692.09 examples/s]Generating train split: 3901 examples [00:00, 5596.38 examples/s]
Generating validation split: 0 examples [00:00, ? examples/s]Generating validation split: 173 examples [00:00, 7695.64 examples/s]
PeftModelForCausalLM(
  (base_model): LoraModel(
    (model): CustomLlamaForCausalLM(
      (model): LlamaModel(
        (embed_tokens): Embedding(32000, 8192)
        (layers): ModuleList(
          (0-79): 80 x LlamaDecoderLayer(
            (self_attn): LlamaFlashAttention2(
              (qkv_proj): lora.Linear(
                (base_layer): Linear(in_features=8192, out_features=10240, bias=False)
                (lora_dropout): ModuleDict(
                  (default): Dropout(p=0.1, inplace=False)
                )
                (lora_A): ModuleDict(
                  (default): Linear(in_features=8192, out_features=16, bias=False)
                )
                (lora_B): ModuleDict(
                  (default): Linear(in_features=16, out_features=10240, bias=False)
                )
                (lora_embedding_A): ParameterDict()
                (lora_embedding_B): ParameterDict()
              )
              (o_proj): lora.Linear(
                (base_layer): Linear(in_features=8192, out_features=8192, bias=False)
                (lora_dropout): ModuleDict(
                  (default): Dropout(p=0.1, inplace=False)
                )
                (lora_A): ModuleDict(
                  (default): Linear(in_features=8192, out_features=16, bias=False)
                )
                (lora_B): ModuleDict(
                  (default): Linear(in_features=16, out_features=8192, bias=False)
                )
                (lora_embedding_A): ParameterDict()
                (lora_embedding_B): ParameterDict()
              )
              (rotary_emb): LlamaRotaryEmbedding()
            )
            (mlp): LlamaMLP(
              (gate_proj): Linear(in_features=8192, out_features=28672, bias=False)
              (up_proj): Linear(in_features=8192, out_features=28672, bias=False)
              (down_proj): Linear(in_features=28672, out_features=8192, bias=False)
              (act_fn): SiLU()
            )
            (input_layernorm): LlamaRMSNorm()
            (post_attention_layernorm): LlamaRMSNorm()
          )
        )
        (norm): LlamaRMSNorm()
      )
      (lm_head): Linear(in_features=8192, out_features=32000, bias=False)
    )
  )
)
trainable params: 44,564,480 || all params: 69,021,212,672 || trainable%: 0.06456635326269569
Parameter Offload: Total persistent parameters: 1318912 in 161 params
trainable params: 44,564,480 || all params: 69,021,212,672 || trainable%: 0.06456635326269569
trainable params: 44,564,480 || all params: 69,021,212,672 || trainable%: 0.06456635326269569
…
